…
I0206 15:53:42.045927 29248 caffe.cpp:284] Use CPU.
I0206 15:53:42.047621 29248 net.cpp:294] The NetState phase (1) differed from the phase (0) specified by a rule in layer mnist
I0206 15:53:42.047852 29248 net.cpp:51] Initializing net from parameters: 
name: "LeNet"
state {
  phase: TEST
  level: 0
  stage: ""
}
layer {
  name: "mnist"
  type: "Data"
  top: "data"
  top: "label"
  include {
    phase: TEST
  }
  transform_param {
    scale: 0.00390625
  }
  data_param {
    source: "examples/mnist/mnist_test_lmdb"
    batch_size: 100
    backend: LMDB
  }
}
layer {
  name: "conv1"
  type: "Convolution"
  bottom: "data"
  top: "conv1"
  param {
    lr_mult: 1
  }
  param {
    lr_mult: 2
  }
  convolution_param {
    num_output: 20
    kernel_size: 5
    stride: 1
    weight_filler {
      type: "xavier"
    }
    bias_filler {
      type: "constant"
    }
  }
}
layer {
  name: "pool1"
  type: "Pooling"
  bottom: "conv1"
  top: "pool1"
  pooling_param {
    pool: MAX
    kernel_size: 2
    stride: 2
  }
}
layer {
  name: "conv2"
  type: "Convolution"
  bottom: "pool1"
  top: "conv2"
  param {
    lr_mult: 1
  }
  param {
    lr_mult: 2
  }
  convolution_param {
    num_output: 50
    kernel_size: 5
    stride: 1
    weight_filler {
      type: "xavier"
    }
    bias_filler {
      type: "constant"
    }
  }
}
layer {
  name: "pool2"
  type: "Pooling"
  bottom: "conv2"
  top: "pool2"
  pooling_param {
    pool: MAX
    kernel_size: 2
    stride: 2
  }
}
layer {
  name: "ip1"
  type: "InnerProduct"
  bottom: "pool2"
  top: "ip1"
  param {
    lr_mult: 1
  }
  param {
    lr_mult: 2
  }
  inner_product_param {
    num_output: 500
    weight_filler {
      type: "xavier"
    }
    bias_filler {
      type: "constant"
    }
  }
}
layer {
  name: "relu1"
  type: "ReLU"
  bottom: "ip1"
  top: "ip1"
}
layer {
  name: "ip2"
  type: "InnerProduct"
  bottom: "ip1"
  top: "ip2"
  param {
    lr_mult: 1
  }
  param {
    lr_mult: 2
  }
  inner_product_param {
    num_output: 10
    weight_filler {
      type: "xavier"
    }
    bias_filler {
      type: "constant"
    }
  }
}
layer {
  name: "accuracy"
  type: "MyAccuracy"
  bottom: "ip2"
  bottom: "label"
  top: "accuracy"
  include {
    phase: TEST
  }
}
layer {
  name: "loss"
  type: "SoftmaxWithLoss"
  bottom: "ip2"
  bottom: "label"
  top: "loss"
}
I0206 15:53:42.051671 29248 layer_factory.hpp:77] Creating layer mnist
I0206 15:53:42.052070 29248 db_lmdb.cpp:35] Opened lmdb examples/mnist/mnist_test_lmdb
I0206 15:53:42.052150 29248 net.cpp:84] Creating Layer mnist
I0206 15:53:42.052196 29248 net.cpp:380] mnist -> data
I0206 15:53:42.052247 29248 net.cpp:380] mnist -> label
I0206 15:53:42.052363 29248 data_layer.cpp:45] output data size: 100,1,28,28
I0206 15:53:42.053314 29248 net.cpp:122] Setting up mnist
I0206 15:53:42.053381 29248 net.cpp:129] Top shape: 100 1 28 28 (78400)
I0206 15:53:42.053421 29248 net.cpp:129] Top shape: 100 (100)
I0206 15:53:42.053457 29248 net.cpp:137] Memory required for data: 314000
I0206 15:53:42.053495 29248 layer_factory.hpp:77] Creating layer label_mnist_1_split
I0206 15:53:42.053539 29248 net.cpp:84] Creating Layer label_mnist_1_split
I0206 15:53:42.053577 29248 net.cpp:406] label_mnist_1_split <- label
I0206 15:53:42.053618 29248 net.cpp:380] label_mnist_1_split -> label_mnist_1_split_0
I0206 15:53:42.053658 29248 net.cpp:380] label_mnist_1_split -> label_mnist_1_split_1
I0206 15:53:42.053702 29248 net.cpp:122] Setting up label_mnist_1_split
I0206 15:53:42.053740 29248 net.cpp:129] Top shape: 100 (100)
I0206 15:53:42.053776 29248 net.cpp:129] Top shape: 100 (100)
I0206 15:53:42.053808 29248 net.cpp:137] Memory required for data: 314800
I0206 15:53:42.053843 29248 layer_factory.hpp:77] Creating layer conv1
I0206 15:53:42.053889 29248 net.cpp:84] Creating Layer conv1
I0206 15:53:42.053926 29248 net.cpp:406] conv1 <- data
I0206 15:53:42.054011 29248 net.cpp:380] conv1 -> conv1
I0206 15:53:42.054088 29248 net.cpp:122] Setting up conv1
I0206 15:53:42.054100 29248 net.cpp:129] Top shape: 100 20 24 24 (1152000)
I0206 15:53:42.054105 29248 net.cpp:137] Memory required for data: 4922800
I0206 15:53:42.054116 29248 layer_factory.hpp:77] Creating layer pool1
I0206 15:53:42.054139 29248 net.cpp:84] Creating Layer pool1
I0206 15:53:42.054147 29248 net.cpp:406] pool1 <- conv1
I0206 15:53:42.054152 29248 net.cpp:380] pool1 -> pool1
I0206 15:53:42.054167 29248 net.cpp:122] Setting up pool1
I0206 15:53:42.054174 29248 net.cpp:129] Top shape: 100 20 12 12 (288000)
I0206 15:53:42.054178 29248 net.cpp:137] Memory required for data: 6074800
I0206 15:53:42.054183 29248 layer_factory.hpp:77] Creating layer conv2
I0206 15:53:42.054193 29248 net.cpp:84] Creating Layer conv2
I0206 15:53:42.054198 29248 net.cpp:406] conv2 <- pool1
I0206 15:53:42.054204 29248 net.cpp:380] conv2 -> conv2
I0206 15:53:42.054380 29248 net.cpp:122] Setting up conv2
I0206 15:53:42.054390 29248 net.cpp:129] Top shape: 100 50 8 8 (320000)
I0206 15:53:42.054395 29248 net.cpp:137] Memory required for data: 7354800
I0206 15:53:42.054404 29248 layer_factory.hpp:77] Creating layer pool2
I0206 15:53:42.054410 29248 net.cpp:84] Creating Layer pool2
I0206 15:53:42.054415 29248 net.cpp:406] pool2 <- conv2
I0206 15:53:42.054421 29248 net.cpp:380] pool2 -> pool2
I0206 15:53:42.054430 29248 net.cpp:122] Setting up pool2
I0206 15:53:42.054436 29248 net.cpp:129] Top shape: 100 50 4 4 (80000)
I0206 15:53:42.054440 29248 net.cpp:137] Memory required for data: 7674800
I0206 15:53:42.054445 29248 layer_factory.hpp:77] Creating layer ip1
I0206 15:53:42.054453 29248 net.cpp:84] Creating Layer ip1
I0206 15:53:42.054458 29248 net.cpp:406] ip1 <- pool2
I0206 15:53:42.054466 29248 net.cpp:380] ip1 -> ip1
I0206 15:53:42.057162 29248 net.cpp:122] Setting up ip1
I0206 15:53:42.062090 29248 net.cpp:129] Top shape: 100 500 (50000)
I0206 15:53:42.062144 29248 net.cpp:137] Memory required for data: 7874800
I0206 15:53:42.062193 29248 layer_factory.hpp:77] Creating layer relu1
I0206 15:53:42.062238 29248 net.cpp:84] Creating Layer relu1
I0206 15:53:42.062276 29248 net.cpp:406] relu1 <- ip1
I0206 15:53:42.062314 29248 net.cpp:367] relu1 -> ip1 (in-place)
I0206 15:53:42.062366 29248 net.cpp:122] Setting up relu1
I0206 15:53:42.062405 29248 net.cpp:129] Top shape: 100 500 (50000)
I0206 15:53:42.062440 29248 net.cpp:137] Memory required for data: 8074800
I0206 15:53:42.062474 29248 layer_factory.hpp:77] Creating layer ip2
I0206 15:53:42.062516 29248 net.cpp:84] Creating Layer ip2
I0206 15:53:42.062552 29248 net.cpp:406] ip2 <- ip1
I0206 15:53:42.062590 29248 net.cpp:380] ip2 -> ip2
I0206 15:53:42.062680 29248 net.cpp:122] Setting up ip2
I0206 15:53:42.062722 29248 net.cpp:129] Top shape: 100 10 (1000)
I0206 15:53:42.062757 29248 net.cpp:137] Memory required for data: 8078800
I0206 15:53:42.062793 29248 layer_factory.hpp:77] Creating layer ip2_ip2_0_split
I0206 15:53:42.062831 29248 net.cpp:84] Creating Layer ip2_ip2_0_split
I0206 15:53:42.062866 29248 net.cpp:406] ip2_ip2_0_split <- ip2
I0206 15:53:42.062903 29248 net.cpp:380] ip2_ip2_0_split -> ip2_ip2_0_split_0
I0206 15:53:42.064301 29248 net.cpp:380] ip2_ip2_0_split -> ip2_ip2_0_split_1
I0206 15:53:42.064365 29248 net.cpp:122] Setting up ip2_ip2_0_split
I0206 15:53:42.064406 29248 net.cpp:129] Top shape: 100 10 (1000)
I0206 15:53:42.064443 29248 net.cpp:129] Top shape: 100 10 (1000)
I0206 15:53:42.064478 29248 net.cpp:137] Memory required for data: 8086800
I0206 15:53:42.064513 29248 layer_factory.hpp:77] Creating layer accuracy
I0206 15:53:42.064558 29248 net.cpp:84] Creating Layer accuracy
I0206 15:53:42.065548 29248 net.cpp:406] accuracy <- ip2_ip2_0_split_0
I0206 15:53:42.065593 29248 net.cpp:406] accuracy <- label_mnist_1_split_0
I0206 15:53:42.065636 29248 net.cpp:380] accuracy -> accuracy
…
